…
WARNING:tensorflow:From H:\CondaEnv\CNNDDIV4\lib\site-packages\tensorflow_core\python\ops\resource_variable_ops.py:1630: calling BaseResourceVariable.__init__ (from tensorflow.python.ops.resource_variable_ops) with constraint is deprecated and will be removed in a future version.
Instructions for updating:
If using Keras pass *_constraint arguments to layers.
Model: "model"
__________________________________________________________________________________________________
Layer (type)                    Output Shape         Param #     Connected to
==================================================================================================
InputLayer (InputLayer)         [(None, 572, 2)]     0
__________________________________________________________________________________________________
conv1d (Conv1D)                 (None, 572, 64)      448         InputLayer[0][0]
__________________________________________________________________________________________________
leaky_re_lu (LeakyReLU)         (None, 572, 64)      0           conv1d[0][0]
__________________________________________________________________________________________________
conv1d_1 (Conv1D)               (None, 572, 128)     24704       leaky_re_lu[0][0]
__________________________________________________________________________________________________
leaky_re_lu_1 (LeakyReLU)       (None, 572, 128)     0           conv1d_1[0][0]
__________________________________________________________________________________________________
conv1d_2 (Conv1D)               (None, 572, 128)     49280       leaky_re_lu_1[0][0]
__________________________________________________________________________________________________
leaky_re_lu_2 (LeakyReLU)       (None, 572, 128)     0           conv1d_2[0][0]
__________________________________________________________________________________________________
conv1d_3 (Conv1D)               (None, 572, 128)     49280       leaky_re_lu_2[0][0]
__________________________________________________________________________________________________
leaky_re_lu_3 (LeakyReLU)       (None, 572, 128)     0           conv1d_3[0][0]
__________________________________________________________________________________________________
add (Add)                       (None, 572, 128)     0           leaky_re_lu_1[0][0]
                                                                 leaky_re_lu_3[0][0]
__________________________________________________________________________________________________
conv1d_4 (Conv1D)               (None, 572, 256)     98560       add[0][0]
__________________________________________________________________________________________________
leaky_re_lu_4 (LeakyReLU)       (None, 572, 256)     0           conv1d_4[0][0]
__________________________________________________________________________________________________
flatten (Flatten)               (None, 146432)       0           leaky_re_lu_4[0][0]
__________________________________________________________________________________________________
dense (Dense)                   (None, 267)          39097611    flatten[0][0]
__________________________________________________________________________________________________
dense_1 (Dense)                 (None, 65)           17420       dense[0][0]
__________________________________________________________________________________________________
activation (Activation)         (None, 65)           0           dense_1[0][0]
==================================================================================================
Total params: 39,337,303
Trainable params: 39,337,303
Non-trainable params: 0
__________________________________________________________________________________________________
process = 4178.993152 total = 34176.229376 available = 13928.558592 used = 20247.670784 free = 13928.558592 percent = 59.2
…
